…
,{"stream_name":"stderr","time":91.595780413,"data":"\r  0%|          | 0.00/755k [00:00\u003c?, ?B/s]\r100%|â–ˆâ–ˆâ–ˆâ–ˆâ–ˆâ–ˆâ–ˆâ–ˆâ–ˆâ–ˆ| 755k/755k [00:00\u003c00:00, 37.4MB/s]\n"}
,{"stream_name":"stdout","time":105.688220297,"data":"Overriding model.yaml nc=80 with nc=18\n"}
,{"stream_name":"stdout","time":105.689198518,"data":"\n"}
,{"stream_name":"stdout","time":105.689225721,"data":"                   from  n    params  module                                       arguments                     \n"}
,{"stream_name":"stdout","time":105.7078279,"data":"  0                  -1  1       928  ultralytics.nn.modules.conv.Conv             [3, 32, 3, 2]                 \n"}
,{"stream_name":"stdout","time":105.709541914,"data":"  1                  -1  1     18560  ultralytics.nn.modules.conv.Conv             [32, 64, 3, 2]                \n"}
,{"stream_name":"stdout","time":105.712574699,"data":"  2                  -1  1     26080  ultralytics.nn.modules.block.C3k2            [64, 128, 1, False, 0.25]     \n"}
,{"stream_name":"stdout","time":105.71525264,"data":"  3                  -1  1    147712  ultralytics.nn.modules.conv.Conv             [128, 128, 3, 2]              \n"}
,{"stream_name":"stdout","time":105.719600231,"data":"  4                  -1  1    103360  ultralytics.nn.modules.block.C3k2            [128, 256, 1, False, 0.25]    \n"}
,{"stream_name":"stdout","time":105.724872255,"data":"  5                  -1  1    590336  ultralytics.nn.modules.conv.Conv             [256, 256, 3, 2]              \n"}
,{"stream_name":"stdout","time":105.73465517,"data":"  6                  -1  1    346112  ultralytics.nn.modules.block.C3k2            [256, 256, 1, True]           \n"}
,{"stream_name":"stdout","time":105.744948345,"data":"  7                  -1  1   1180672  ultralytics.nn.modules.conv.Conv             [256, 512, 3, 2]              \n"}
,{"stream_name":"stdout","time":105.77134183,"data":"  8                  -1  1   1380352  ultralytics.nn.modules.block.C3k2            [512, 512, 1, True]           \n"}
,{"stream_name":"stdout","time":105.777236596,"data":"  9                  -1  1    656896  ultralytics.nn.modules.block.SPPF            [512, 512, 5]                 \n"}
,{"stream_name":"stdout","time":105.787673514,"data":" 10                  -1  1    990976  ultralytics.nn.modules.block.C2PSA           [512, 512, 1]                 \n"}
,{"stream_name":"stdout","time":105.788764786,"data":" 11                  -1  1         0  torch.nn.modules.upsampling.Upsample         [None, 2, 'nearest']          \n"}
,{"stream_name":"stdout","time":105.789640143,"data":" 12             [-1, 6]  1         0  ultralytics.nn.modules.conv.Concat           [1]                           \n"}
,{"stream_name":"stdout","time":105.798015431,"data":" 13                  -1  1    443776  ultralytics.nn.modules.block.C3k2            [768, 256, 1, False]          \n"}
,{"stream_name":"stdout","time":105.798828386,"data":" 14                  -1  1         0  torch.nn.modules.upsampling.Upsample         [None, 2, 'nearest']          \n"}
,{"stream_name":"stdout","time":105.799859011,"data":" 15             [-1, 4]  1         0  ultralytics.nn.modules.conv.Concat           [1]                           \n"}
,{"stream_name":"stdout","time":105.803759062,"data":" 16                  -1  1    127680  ultralytics.nn.modules.block.C3k2            [512, 128, 1, False]          \n"}
,{"stream_name":"stdout","time":105.806184955,"data":" 17                  -1  1    147712  ultralytics.nn.modules.conv.Conv             [128, 128, 3, 2]              \n"}
,{"stream_name":"stdout","time":105.807192246,"data":" 18            [-1, 13]  1         0  ultralytics.nn.modules.conv.Concat           [1]                           \n"}
,{"stream_name":"stdout","time":105.815215779,"data":" 19                  -1  1    345472  ultralytics.nn.modules.block.C3k2            [384, 256, 1, False]          \n"}
,{"stream_name":"stdout","time":105.820837408,"data":" 20                  -1  1    590336  ultralytics.nn.modules.conv.Conv             [256, 256, 3, 2]              \n"}
,{"stream_name":"stdout","time":105.821766607,"data":" 21            [-1, 10]  1         0  ultralytics.nn.modules.conv.Concat           [1]                           \n"}
,{"stream_name":"stdout","time":105.850053548,"data":" 22                  -1  1   1511424  ultralytics.nn.modules.block.C3k2            [768, 512, 1, True]           \n"}
,{"stream_name":"stdout","time":105.889152036,"data":" 23        [16, 19, 22]  1    826374  ultralytics.nn.modules.head.Detect           [18, [128, 256, 512]]         \n"}
,{"stream_name":"stdout","time":106.324820718,"data":"YOLO11s summary: 181 layers, 9,434,758 parameters, 9,434,742 gradients, 21.6 GFLOPs\n"}
,{"stream_name":"stdout","time":106.32572842,"data":"\n"}
,{"stream_name":"stdout","time":106.353343459,"data":"Transferred 493/499 items from pretrained weights\n"}
,{"stream_name":"stdout","time":106.355522565,"data":"\u001b[34m\u001b[1mTensorBoard: \u001b[0mStart with 'tensorboard --logdir runs/detect/train', view at http://localhost:6006/\n"}
…
